…
   "execution_count": 48,
   "id": "7182c9cc",
   "metadata": {
    "colab": {
     "base_uri": "https://localhost:8080/"
    },
    "id": "7182c9cc",
    "outputId": "38f5976d-ca78-445d-874d-d2292bf03bff"
   },
   "outputs": [
    {
     "name": "stdout",
     "output_type": "stream",
     "text": [
      "Model: \"sequential\"\n",
      "_________________________________________________________________\n",
      " Layer (type)                Output Shape              Param #   \n",
      "=================================================================\n",
      " conv1d (Conv1D)             (None, 29, 32)            96        \n",
      "                                                                 \n",
      " batch_normalization (BatchN  (None, 29, 32)           128       \n",
      " ormalization)                                                   \n",
      "                                                                 \n",
      " dropout (Dropout)           (None, 29, 32)            0         \n",
      "                                                                 \n",
      " conv1d_1 (Conv1D)           (None, 28, 64)            4160      \n",
      "                                                                 \n",
      " batch_normalization_1 (Batc  (None, 28, 64)           256       \n",
      " hNormalization)                                                 \n",
      "                                                                 \n",
      " dropout_1 (Dropout)         (None, 28, 64)            0         \n",
      "                                                                 \n",
      " flatten (Flatten)           (None, 1792)              0         \n",
      "                                                                 \n",
      " dense (Dense)               (None, 64)                114752    \n",
      "                                                                 \n",
      " dropout_2 (Dropout)         (None, 64)                0         \n",
      "                                                                 \n",
      " dense_1 (Dense)             (None, 1)                 65        \n",
      "                                                                 \n",
      "=================================================================\n",
      "Total params: 119,457\n",
      "Trainable params: 119,265\n",
      "Non-trainable params: 192\n",
      "_________________________________________________________________\n"
     ]
    }
   ],
   "source": [
    "model.summary()"
…
